examples/iris/model/iris.tflite (tflite, 1204 bytes, 4 tensors)

MatMul_1_bias f4 [3]
000000 1d 30 44 3f 3b dc e9 be 81 37 a9 bf
       0.76635915 -0.45675835 -1.3220063

MatMul_bias f4 [10]
000000 bd 70 14 c0 9b 51 f5 3d e7 17 b0 be c3 76 77 3f
       -2.319381 0.11978456 -0.34393236 0.9666559
000010 6d c8 92 3f 10 27 5d 3f 1b 7d ba c0 45 2f 79 3f
       1.1467415 0.8638773 -5.8277717 0.9733775
000020 b8 8a 4c 3f 94 cf 4a 3f
       0.7989917 0.7922299

Variable/transpose f4 [10, 4]
000000 f6 06 3f 3e c5 c6 b4 be 9f 2c 83 bd 38 3b 03 40
       0.18654999 -0.353079 -0.06404995 2.0504894
000010 c1 35 6d bf f5 8f 11 bf e6 9c a4 bf b3 d1 00 bf
       -0.92660147 -0.56860286 -1.2860382 -0.50319976
000020 86 cf 98 bf ce f8 3e be 4c 0b 9f bf ad ba 1c bf
       -1.1938331 -0.18649599 -1.2425323 -0.61222345
000030 73 68 60 3f cc b9 d9 bd 07 f6 37 3e 9e 06 aa bf
       0.87659377 -0.10631141 0.17964946 -1.328327
000040 9c 71 b5 bd 35 48 a6 bf d1 c3 33 40 ca 0e 8f bf
       -0.0885956 -1.2990786 2.8088267 -1.1176388
000050 ee eb c2 3c 7d 59 92 bf a7 a9 cb 3f 7e 2a e2 3f
       0.02379414 -1.143356 1.5911149 1.7669218
000060 c7 33 87 be 88 23 ad bf cb af 07 40 7c 05 f9 3f
       -0.2640669 -1.3526468 2.1201046 1.9454799
000070 b4 f7 14 bf 5f 7a 7d bd f0 74 1b 3f 5a e7 51 bf
       -0.58190465 -0.06188428 0.6072531 -0.8199364
000080 07 f0 da 3f bd bd 25 bf 89 96 b3 be cd 2f 66 bf
       1.71045 -0.6474264 -0.35075787 -0.8991669
000090 6e 16 b2 3d bf 5e d4 be 1a 59 e2 be 4a ec 88 be
       0.086956844 -0.41478536 -0.44208604 -0.26742774

Variable_1/transpose f4 [3, 10]
000000 0d 99 8a bf 59 43 4e 3f 37 d0 6d bf 3a 46 e2 3f
       -1.0827957 0.80571514 -0.92895836 1.7677681
000010 87 48 cd bf 00 be 79 bf c6 01 ff bf 1d 08 96 bf
       -1.6037759 -0.9755554 -1.9922416 -1.1721226
000020 92 d6 ac 3f f6 3b 1c bf 5c 49 1a c0 43 8d 5d bd
       1.3502982 -0.61028993 -2.4107275 -0.054089796
000030 29 30 d3 3e 3d ee 03 3f 11 9a 87 bc c2 8c 9d 3f
       0.4124768 0.515354 -0.016552957 1.2308581
000040 44 72 4b c0 6f 29 1f 3f 22 77 04 3f 8a aa 18 3e
       -3.1788492 0.621726 0.5174428 0.14908805
000050 b8 91 a8 3f 3c 29 b9 3f ce 6f 31 bf 39 51 c0 3e
       1.316947 1.4465709 -0.69311225 0.37561968
000060 96 b6 a2 be 87 15 0f 3f d5 ae 03 40 62 2a 59 bf
       -0.31779927 0.55892223 2.057546 -0.84830296
000070 43 00 da be 1b ea 23 3f
       -0.42578325 0.6402909
